…
  "layer_norm_eps": 1e-12,
  "max_position_embeddings": 512,
  "mlp_dropout": 0.1,
  "model_type": "bert",
  "num_attention_heads": 4,
  "num_hidden_layers": 4,
  "pad_token_id": 0,
  "position_embedding_type": "absolute",
  "transformers_version": "4.56.1",
  "type_vocab_size": 2,
  "use_cache": true,
  "vocab_size": 10000
}
                                                       microbert2/microbert/model/encoder.py:27
[09/11/25 13:50:25] INFO     Initialized MicroBERT model: MicroBERTModel(
  (encoder): BertEncoder(
    (encoder): BertModel(
      (embeddings): BertEmbeddings(
        (word_embeddings): Embedding(10000, 128, padding_idx=0)
        (position_embeddings): Embedding(512, 128)
        (token_type_embeddings): Embedding(2, 128)
        (LayerNorm): LayerNorm((128,), eps=1e-12, elementwise_affine=True)
        (dropout): Dropout(p=0.1, inplace=False)
      )
      (encoder): BertEncoder(
        (layer): ModuleList(
          (0-3): 4 x BertLayer(
            (attention): BertAttention(
              (self): BertSdpaSelfAttention(
                (query): Linear(in_features=128, out_features=128, bias=True)
                (key): Linear(in_features=128, out_features=128, bias=True)
                (value): Linear(in_features=128, out_features=128, bias=True)
                (dropout): Dropout(p=0.1, inplace=False)
              )
              (output): BertSelfOutput(
                (dense): Linear(in_features=128, out_features=128, bias=True)
                (LayerNorm): LayerNorm((128,), eps=1e-12, elementwise_affine=True)
                (dropout): Dropout(p=0.1, inplace=False)
              )
            )
            (intermediate): BertIntermediate(
              (dense): Linear(in_features=128, out_features=192, bias=True)
              (intermediate_act_fn): GELUActivation()
            )
            (output): BertOutput(
              (dense): Linear(in_features=192, out_features=128, bias=True)
              (LayerNorm): LayerNorm((128,), eps=1e-12, elementwise_affine=True)
              (dropout): Dropout(p=0.1, inplace=False)
            )
          )
        )
      )
    )
  )
  (task_heads): ModuleList(
    (0): TiedRobertaLMHead(
      (dense): Linear(in_features=128, out_features=128, bias=True)
      (layer_norm): LayerNorm((128,), eps=1e-12, elementwise_affine=True)
    )
    (1): XposHead(
      (linear): Linear(in_features=128, out_features=58, bias=True)
      (accuracy): MulticlassAccuracy()
    )
  )
) microbert2/microbert/model/model.py:80
Training:   0%|          | 0/100000 [00:00<?, ?it/s]Training:   0%|          | 0/100000 [00:06<?, ?it/s]
[09/11/25 13:51:00] ERROR    Uncaught exception
Traceback (most recent call last):
  File "/N/u/partkaew/BigRed200/.conda/envs/mb2/lib/python3.10/site-packages/tango/step.py", line 483, in _run_with_work_dir
…
